diabetes.pt (torch, 5535 bytes, 6 tensors)

weight f4 [20, 7]
000000 6f a1 fd bd 40 6c 9a be 70 b7 f1 3d 2e 5f 43 bd
       -0.12384307 -0.30160713 0.11802566 -0.047698192
000010 49 0a 94 be 32 e6 90 3e b6 18 02 3f 94 5d 9a be
       -0.28914097 0.28300625 0.50818956 -0.3014952
000020 75 b7 71 be 95 d1 a6 3e 40 b5 9e be ab b8 0e be
       -0.2360514 0.32581773 -0.30997658 -0.13937633
000030 8b 31 ab 3e 91 b9 3e be 4a f7 33 3e 97 ba 99 bc
       0.33436236 -0.18625475 0.17574802 -0.01876573
000040 8d 68 ee bd 4e 99 d0 39 d8 5b 8a bd 68 cc 7c bf
       -0.11641035 0.00039787072 -0.06755799 -0.987494
000050 13 e7 c6 3e a0 23 10 be 0b 33 c5 3e b8 2e b7 3d
       0.3884817 -0.1407609 0.38515505 0.08944458
000060 97 3a 35 be 18 93 c1 bd 00 bc 33 40 c0 e9 c8 3e
       -0.17698132 -0.09451884 2.8083496 0.39240837
000070 44 3e 7e bb 41 dc aa 3d e7 f2 d7 3e e3 ca fc be
       -0.0038794437 0.08342791 0.42177507 -0.4937354
000080 8a 32 0a 3f 63 6a 35 40 d3 57 8d be ef 1f 07 be
       0.53983366 2.8346183 -0.27606067 -0.13195775
000090 22 5d 49 be 30 bc 86 bc 95 bc 50 be d8 ab e0 3d
       -0.19664434 -0.016447157 -0.20384438 0.109702766
0000a0 a8 6d 21 3d 36 9c 22 3e fb ca 53 be 1b ef cb bd
       0.039411217 0.15879902 -0.206829 -0.09957715
0000b0 ef c0 22 3f 93 d1 b8 bf 0f 06 b8 3e f8 d6 7d 40
       0.63575643 -1.4438957 0.35942122 3.9662457
0000c0 07 34 1a 3e 98 4c 9e be c1 c0 bd be 70 14 f6 3c
       0.1505891 -0.3091781 -0.37061122 0.030039042
0000d0 aa d6 80 3d b8 fb df 3e 17 bd 21 c0 a7 66 ea 3e
       0.06290944 0.43746734 -2.5271661 0.45781443
0000e0 3b 2b dd be 35 ec e3 3e 6c 99 98 3d 3e d6 3b 3e
       -0.43197045 0.4451615 0.07451138 0.18343446
0000f0 08 3d f5 3e 1e 3b 92 3e d3 3b 22 3e 47 f8 7d 3e
       0.47898126 0.28560728 0.15843134 0.24801742
000100 99 04 38 3d c0 56 88 3e d1 df 51 be 05 63 30 3e
       0.04492626 0.26628685 -0.20495535 0.17225273
000110 0a 43 12 c0 c0 e2 85 be ba 99 ae be 2c af c4 3e
       -2.2853417 -0.2614956 -0.3410166 0.38414896
000120 1f 63 85 be 21 9c 51 3e e4 7b 1d 3e 7f e8 06 40
       -0.26052186 0.20469715 0.15379292 2.1079404
000130 45 c5 8d bd 54 0f b9 be 80 fe df bb bb d9 80 3e
       -0.06922392 -0.36144507 -0.0068357587 0.25166115
000140 a0 07 9e bc 5c a5 bb be b2 59 20 3e 10 a5 29 3d
       -0.019290745 -0.36649597 0.15659216 0.04141718
000150 78 87 2e 3d 80 42 29 3d 78 9b a2 be e4 df a4 be
       0.04260966 0.041323185 -0.31759238 -0.32202065
000160 60 75 b1 be a5 e8 a2 3e 46 b9 ac be e8 19 7f be
       -0.34659863 0.3181812 -0.33735102 -0.24912226
000170 a4 7f be bd b0 bc a3 3d 18 33 92 be 43 d3 78 be
       -0.09301689 0.07994974 -0.28554606 -0.2429934
000180 ec 09 8a bd f8 5f dc 3d d1 86 e5 be 1b 6d 05 3e
       -0.06740174 0.10760492 -0.4482942 0.13029902
000190 64 ff 91 3e 6f d7 4b be 9d 6a 09 be 6d a3 87 bf
       0.2851516 -0.199064 -0.13419576 -1.0596749
0001a0 72 de c2 be f7 46 a3 be d8 4e 95 3e 94 03 8c 3e
       -0.38060337 -0.3189008 0.29161716 0.2734648
0001b0 31 16 a1 bd 6a a5 04 be 0e 3c 50 c0 92 3d f5 3e
       -0.07865561 -0.12953725 -3.2536654 0.47898537
0001c0 12 87 0f be 3e 79 43 be b7 3d 34 bd 46 82 d2 3e
       -0.14016369 -0.19089219 -0.04400417 0.41115016
0001d0 33 6f 7d 3d 35 b3 a0 bf 9d f2 61 3d bc 67 5a bf
       0.061873626 -1.255469 0.055163015 -0.85314536
0001e0 b4 7c 08 be 85 c5 27 3e 1c a7 4e be e6 b0 b9 3e
       -0.1332882 0.16383941 -0.20180935 0.36267775
0001f0 2d ee 86 3f 74 db e5 3e c0 9e ae 3e d1 03 0b 3e
       1.0541435 0.44893992 0.34105492 0.13575675
000200 60 09 5e bf c6 49 d2 3b cb 0b dd 3a 63 e9 57 40
       -0.86733055 0.006417486 0.0016864476 3.3736198
000210 f9 ce 15 bf b1 a1 0b be 6c cb 07 be 81 98 d1 3e
       -0.5851894 -0.13635899 -0.13261193 0.40936664
000220 0b bc 4d 3e 4c f1 13 bf 3c a0 72 3f 58 8f 29 3e
       0.20091264 -0.57790065 0.9477575 0.16558588

bias f4 [20]
000000 38 ed 41 3f e7 e7 17 be 21 10 e0 bf cc 4a c0 bf
       0.7575259 -0.14834557 -1.7504922 -1.5022826
000010 ca cd b8 bf c3 82 31 be 1d d7 a3 bf 13 39 a6 bf
       -1.4437802 -0.17335038 -1.2800022 -1.2986168
000020 db fa 68 bf 89 a9 d2 3f de 2a 23 40 c8 08 d3 bd
       -0.91007775 1.6457988 2.5494914 -0.10304409
000030 b9 e8 c0 3e e6 04 1c be a3 42 b1 3f 6d 15 01 3f
       0.37677553 -0.15236244 1.3848461 0.5042332
000040 5f b5 6a 3f d7 86 e2 bf 02 4b 09 3f 20 dc 8b bf
       0.91683 -1.76974 0.5363008 -1.0926552

weight f4 [20, 20]
000000 c0 d2 eb bd 6a 72 0c be f6 9b a4 be 2a 8f 46 bc
       -0.11514807 -0.1371552 -0.3215024 -0.012119094
000010 e9 d7 05 3e ef 93 64 be 6e 92 d2 3e c5 b6 34 bf
       0.13070644 -0.22322057 0.41127342 -0.70591384
000020 1e 57 ab bd ae 9c 70 3e 8f ef 50 bc 34 7b e9 3d
       -0.08366226 0.23497269 -0.012752428 0.11400452
000030 d7 81 21 be 90 ae a0 3d ad fc a8 3d 0b f3 a0 be
       -0.15772186 0.07845795 0.08251319 -0.31435427
000040 7b 09 7b 3e 76 d4 d2 bc dc b7 c0 3d a8 9f 9d 3e
       0.24515335 -0.025736075 0.094100684 0.3078587
000050 f5 4c 8a 3d c0 96 4f bc 9d 69 0c 3e 8c b6 83 3e
       0.0675296 -0.012670219 0.13712163 0.2572521
000060 ba 49 51 be 44 cf 0d 3e 9d 5c 6e be 03 1f a8 3e
       -0.2043828 0.13848597 -0.23277517 0.3283616
000070 67 f6 0b bf a2 bd 88 be 31 5c e4 ba 82 78 56 3e
       -0.54672855 -0.26707178 -0.0017422495 0.20944408
000080 74 8b 8a 3d 2a 61 55 3e ad c0 27 3d 3e 21 93 3c
       0.0676488 0.20837846 0.040955234 0.017960187
000090 0b e2 6e 3e 83 89 e7 bd 00 eb 81 bd ce 15 1a 3f
       0.23328416 -0.11305525 -0.06343651 0.6018952
0000a0 f4 7c 1e bd 88 21 d6 bc 8f d4 c4 3e bb 6c 74 3e
       -0.038693383 -0.026139036 0.3844342 0.23869602
0000b0 be 6e 26 be 6c e4 d4 3d d6 be 39 bf 2e 73 c4 be
       -0.16253182 0.103951305 -0.7255682 -0.38369125
0000c0 a2 a8 f5 be 03 14 93 bd 18 97 b0 be 52 5a 4c 3e
       -0.4798022 -0.07181551 -0.34490275 0.1995633
0000d0 b0 2a b6 3d 30 75 fb 3c 0e d6 1a be 9b 79 87 bf
       0.08894861 0.030695528 -0.15120718 -1.0583986
0000e0 02 47 41 3e 5d 28 e5 bd 14 d4 06 3e 81 f7 a7 3e
       0.18874744 -0.11189339 0.13166839 0.32806018
0000f0 15 ea 54 bc 38 77 0f 3e e4 ae 11 bf ba 74 9d 3d
       -0.012995263 0.14010322 -0.56907487 0.076882794
000100 36 5f c6 3e 00 00 ad 3d 92 44 d8 3e e6 75 2d 3f
       0.38744515 0.084472656 0.42239815 0.67758024
000110 3d 66 c8 bd 47 f0 2a be 90 3c a6 3d a2 cc 42 3e
       -0.097851254 -0.16693221 0.0811702 0.19023374
000120 58 5f 92 3c 54 c2 ca 3d 18 af c4 3d 84 57 9d be
       0.017867729 0.099003464 0.09603709 -0.30730832
000130 03 e1 db 3b 88 5b 96 3e 8f 63 c5 be 81 3d 7d be
       0.006710173 0.29366708 -0.3855252 -0.24730493
000140 b4 0f 5b be b4 5e 00 3e 7f 86 13 3d ed a7 ad 3d
       -0.21392709 0.12536126 0.036016937 0.08479295
000150 39 33 55 3e f0 d1 3a be 05 93 d3 be 28 c2 f6 be
       0.20820321 -0.18244147 -0.41323105 -0.48195004
000160 50 91 21 3e c2 4f 34 be ac 6f 86 3e 80 2c 41 be
       0.15778089 -0.1760855 0.26257074 -0.18864632
000170 30 ba 00 bc e0 78 0b bc aa 87 9c 3c 6f df c9 3e
       -0.007856891 -0.008512706 0.019107658 0.3942828
000180 27 e8 67 3c c1 22 c4 bd 59 8b cf 3d dc a5 7d 3e
       0.0141544705 -0.09576941 0.10134 0.24770302
000190 e1 c5 2e 3e b9 d2 d6 bd b5 da 96 bd 0b fd 99 3c
       0.17067672 -0.10489411 -0.07365934 0.018797418
0001a0 ac 0a b3 be 2c 5a 63 be c8 9d 7f bd 72 97 ea 3c
       -0.3496908 -0.22202367 -0.06240633 0.028636668
0001b0 42 2a dc bf 6c cb 9e 3c 32 e0 5d be 78 47 2f 3d
       -1.7200396 0.019384108 -0.21667555 0.042792767
0001c0 42 b8 64 be 9c 8f e0 3d 1c cc 49 3e 1b 87 35 c0
       -0.22335914 0.10964891 0.19706768 -2.8363712
0001d0 03 4e 94 be 30 f3 39 bc 74 68 75 3e 5d fa e3 3e
       -0.28965768 -0.011349484 0.23965627 0.4452695
0001e0 b5 a4 31 3d 48 c6 1b 3d 14 bd 0b be 7b d6 7e be
       0.043369967 0.038030893 -0.13646346 -0.24886505
0001f0 49 1b 67 bd 50 90 15 3d 93 78 29 bd 06 e3 e6 3d
       -0.056422506 0.03651458 -0.041374754 0.1127377
000200 2a c6 0a 3a d1 e8 42 3d 51 0a 86 be 1e bd 02 be
       0.0005293811 0.047585312 -0.26179746 -0.12767455
000210 d6 0b 61 be d0 6a 13 bc a3 54 1b be 83 b4 f8 3c
       -0.21977171 -0.008997634 -0.15169005 0.030359512
000220 a8 43 8b bb 85 7a 26 be 1f 38 3a bd 10 f8 22 bd
       -0.0042500086 -0.16257675 -0.045463677 -0.039787352
000230 fa 21 3e be e0 29 f3 bb 21 85 a8 3d ed d9 2e be
       -0.18567649 -0.0074207634 0.08228517 -0.1707532
000240 93 b2 e1 3d d0 26 14 3d 5d dd 27 3e 0a cc 2d 3f
       0.110203885 0.036169827 0.16393037 0.67889464
000250 89 94 27 3d b1 db 18 3d 94 fa fe bd 18 5f f8 3d
       0.04091314 0.03731889 -0.12450138 0.12127513
000260 84 51 02 bd b8 9a 22 bd 5e 6b 96 bd 02 19 06 bf
       -0.03181602 -0.039698333 -0.073446974 -0.5238191
000270 f7 a4 58 3e 82 e4 0a 3e c3 db d4 3e aa 6b fb bd
       0.21156679 0.13563731 0.41573915 -0.12276395
000280 b4 72 86 3d 60 5d cd 3d 18 69 b3 be e3 08 ed 3e
       0.06564847 0.100275755 -0.35041118 0.46295843
000290 dd 4c c1 bd e0 19 32 be ba 52 f9 3e 2d 62 4f 3f
       -0.09438489 -0.17392683 0.48695928 0.8100918
0002a0 db 94 51 3e 8d 27 a2 be ec 7b 98 bf 70 81 e2 bc
       0.2046694 -0.316708 -1.1912818 -0.027649611
0002b0 37 cc 43 be 8e ba 2e be f9 04 6d be 9e bd 84 3d
       -0.1912087 -0.17063352 -0.23146428 0.06481479
0002c0 ee 51 e0 3e 33 0b 7f 3e 85 03 ec bc 17 96 9b bd
       0.43812507 0.24906616 -0.028810272 -0.07596987
0002d0 0e a2 21 3e 77 7b 11 be 89 13 93 3c f5 69 ef bd
       0.15784475 -0.14207254 0.017953651 -0.116901316
0002e0 ab 20 86 be 4c bc 30 3e 31 98 8e 3c e9 92 75 be
       -0.261968 0.1725933 0.017406555 -0.23981823
0002f0 e8 36 c4 3d 28 64 65 3e 93 1b dd 3d bd b4 56 be
       0.09580785 0.22401488 0.10796275 -0.20967384
000300 80 3e 0b 3c d8 ae 67 3d 77 90 2f 3e 45 62 66 3e
       0.008498788 0.05656323 0.17144953 0.22498424
000310 d5 4b 71 be d9 4d c4 bd 29 10 0b bd cd bf f5 be
       -0.23564084 -0.09585161 -0.03395096 -0.47997895
000320 c7 f8 73 3e 00 0e 8a bc c0 13 8d bd 7b 18 44 3e
       0.2382537 -0.016852379 -0.06888533 0.19149964
000330 34 6f d8 bf 88 82 9b bd e8 6f 30 be b8 49 07 bd
       -1.6908937 -0.07593256 -0.17230189 -0.033029288
000340 f1 13 c1 3e 08 98 81 be f2 16 89 3e a8 07 e3 3d
       0.37710527 -0.25311303 0.26775318 0.11085445
000350 08 10 10 3d 62 5e 50 3e 06 09 68 be 62 63 29 c0
       0.03517154 0.20348504 -0.22659692 -2.6466908
000360 ac d9 ae be e8 6e 0d 3e 68 90 57 be d2 08 4d be
       -0.34150445 0.13811839 -0.2105118 -0.20022896
000370 50 27 45 be 10 a9 be bc a4 78 cc be fe 85 7b bf
       -0.19253278 -0.023273975 -0.39935791 -0.9825133
000380 e8 07 9b 3e 59 12 eb bd 08 ad 9f 3f b3 5f 0e be
       0.3027947 -0.11478109 1.247468 -0.13903694
000390 0a e0 b7 bd 9e a7 ae 3d 7c 9a 0f be e8 4a ee bc
       -0.08978279 0.08528064 -0.14023775 -0.029088452
0003a0 90 fa 17 3c 34 68 d8 3d 95 bc 9e 3c 1e 06 d2 bd
       0.009276047 0.1056675 0.019377032 -0.10255073
0003b0 a0 e3 23 be e8 ec 44 be 2f 6a fc 3e 39 58 2e bc
       -0.16004801 -0.19230998 0.49299762 -0.010641151
0003c0 ad c5 c9 3d 08 e9 34 3d 57 ef ba bd fa 51 f6 be
       0.09852157 0.04416755 -0.09127682 -0.48109418
0003d0 62 cd 7c 3e ec ce 46 3e 15 88 a8 3f 1d 33 02 3f
       0.24687722 0.19414872 1.3166529 0.5085924
0003e0 c1 91 89 be 20 d7 1b be 14 05 2c be 58 a4 6f 3d
       -0.26869014 -0.15218782 -0.16798812 0.05850634
0003f0 f2 e0 4b 3e 42 69 3a 3e 37 d9 fd 3c 06 31 9c bf
       0.19910029 0.18204215 0.030987365 -1.2202461

bias f4 [20]
000000 2c 69 c2 3f 83 83 f6 bf ae f7 33 3f 56 e5 6a bf
       1.5188346 -1.9258884 0.70299804 -0.9175619
000010 e4 90 a1 3f 1c 93 ea be 8a 96 22 be 27 22 72 bf
       1.2622342 -0.4581536 -0.15877739 -0.9458336
000020 94 06 8d bf 43 da 35 be d2 64 04 c0 fa 91 d4 bf
       -1.1017632 -0.17759041 -2.0686536 -1.6607049
000030 6a 16 eb be e6 96 b2 bf 63 96 61 3e 4e 95 12 c0
       -0.45915538 -1.39523 0.22030024 -2.2903628
000040 2d 91 38 40 2d f3 ee 3f 1f a7 95 3f a4 55 55 be
       2.8838608 1.8667961 1.1691626 -0.2083345

weight f4 [2, 20]
000000 61 2e 7b 3e 9e ab 81 be 73 a8 a8 3e 89 d6 fc be
       0.24529411 -0.25326246 0.32941017 -0.49382427
000010 f6 a6 b0 3d ce d3 45 3f 92 6f 88 bd bc f6 96 be
       0.08625595 0.77276313 -0.06661905 -0.29485118
000020 9e b8 c0 bf d7 10 f3 3b 2c bc b0 bf 1f 24 0e bf
       -1.5056341 0.007417779 -1.3807425 -0.55523866
000030 60 54 9e 3f c3 1d 82 be 64 54 a8 be 24 1e 63 be
       1.2369499 -0.2541333 -0.32876885 -0.22179466
000040 4c 0f f3 3f 4c cd 94 3d 02 5f 20 3f 64 9d c8 3d
       1.8989043 0.0726572 0.6264497 0.09795645
000050 b0 1c de bd b3 4b 06 3f 86 14 d2 be af c5 02 3f
       -0.108453155 0.5245926 -0.41031283 0.5108289
000060 9e 35 08 be ed aa 28 bf fe b3 60 3c 82 1f 4b 3e
       -0.13301703 -0.6588581 0.0137147885 0.19836238
000070 38 d1 db 3f 1e 6d 8b be ba d3 ac 3f c9 82 10 3f
       1.7173223 -0.27231687 1.3502114 0.5644956
000080 16 b7 a4 bf be 10 5b 3e 10 c1 63 3e 62 29 94 3e
       -1.2868373 0.21393105 0.22241616 0.28937823
000090 72 54 d2 bf 2e 6c 8b be e2 33 dc be 78 4a 3d 3e
       -1.6432021 -0.27230972 -0.43008333 0.18485439

bias f4 [2]
000000 54 47 80 3f f0 7d 67 bf
       1.0021768 -0.9042654
